app/src/main/assets/fish_model.tflite (tflite, 6220 bytes, 5 tensors)

arith.constant f4 [16]
00000000: 55c9 c4bb 1e87 34bd fd12 bbbc b65c a93d
00000010: 4cf1 d03d 982a ac3d 6359 4abc a8d1 3d3d
00000020: f59f f2bc a593 c73d 06b8 05bc 0000 0000
00000030: 23b4 b13d 551b bb3d 4bbe ad3d 9416 9d3d
-0.006005446 -0.04407417 -0.022836203 0.08269636 0.10202274 0.084065616 -0.012350413 0.046342522
-0.02961729 0.09744958 -0.00816155 0.0 0.086769365 0.091360725 0.08483561 0.07670322

arith.constant2 f4 [1, 16]
00000000: 959b f6be 8a6c 03bc c7d9 43be b31a 173f
00000010: 1e93 143e 6721 d13e cb35 a0be 7858 aa3e
00000020: d2f2 20be a1f9 2b3e 8c22 b0be f05c 123e
00000030: 74e7 9b3e f066 603e 94c4 843e e238 d43e
-0.48165575 -0.008021483 -0.19126044 0.59025115 0.14509246 0.40845796 -0.3129104 0.3327062
-0.15717629 0.16794445 -0.34401357 0.14293265 0.30450022 0.21914268 0.25931227 0.41449648

arith.constant3 f4 [16, 32]
00000000: b62c 8a3e 2a65 203e 93f9 ab3e 656c a7be
00000010: e3a2 55be f882 053e a8fc 833d ac19 e93d
00000020: 54c0 ad3d 7753 863e d68e 84be 803f 403d
00000030: 12d8 393d 5b67 59be c026 98bd b5e1 90be
00000040: d29b 623e 80a7 8bbd 2a68 a4bd 5aab 753e
00000050: c47a 8bbd 4c46 f3bd ef65 dcbd e8b9 81be
00000060: 36ea c33c 0012 b7be d8c0 2cbe bc0c b5bd
00000070: 6c8a 2e3e 97a8 823e c8b7 6ebd 4491 133e
00000080: d8d4 a53d 5e79 343e f7c7 43be 1ef6 a0be
00000090: 38d5 aabe efad a2be 8a6d 29bb 002c 61ba
000000a0: 547e 46be 54b2 8abe 1049 0b3d 40ce 4abc
000000b0: ecb1 c0be 8ef7 293e f4fb 29be 5674 723e
000000c0: 9ddf 8b3e b35f 853d 8bef 463e 4401 953d
000000d0: 8694 76be 984c 4dbe 74c8 993e 744a 49be
000000e0: e870 c33c 003d 4f3d 282b 82bd 75ff aabe
000000f0: 9f53 debc 915b a73e 96a0 2b3e 9066 ee3c
00000100: 854c 8ebe 06a8 64be d8b4 353e 80e6 96bc
00000110: db93 a53e 320e 583d e49a 67bd 566d 773e
00000120: a22d aabe 8e72 1a3e 55a6 283c 5cf0 90bd
00000130: 741c e53c 57b1 9cbe cf29 9e3e 5ab1 ecbd
00000140: 4b19 b4be 21a5 8c3e f103 e6bd 881d 7f3d
00000150: 3d1d b4be 5c0e 9cbe 8592 85bd 2c2e 1dbe
00000160: 781b 7e3d 9945 353e 5cd9 6dbe f62b 6b3e
00000170: 36f8 ce3c 7058 233d 9045 f23c 97ec 90be
00000180: 05e0 c43e 4ab5 453e a962 08be a3e1 0abe
00000190: 5265 303e 2a02 c53e b4ad 433d da79 223e
000001a0: ca1e 44be c744 09be 4224 543e 170d 59be
000001b0: 9567 8f3e 7f9e 863e 007b 7fbe c9b3 9f3e
000001c0: 8ce1 723e 5c5d 433e 61ee de3e 4072 39bd
000001d0: 1824 e6bd 5837 dd3d f91a 83be a964 bd3e
000001e0: e27c 0c3e 4a3c cabd e189 a73e d8bf 6abd
000001f0: 519c 983e 4bc2 b4be d639 40be fc41 39be
00000200: c816 9b3e 58d0 943d de31 ffbb cc21 6abe
00000210: 9507 9d3e d820 e13e f636 8f3a bc06 9e3d
00000220: 175f 843e 9227 423e f529 c4bd bb78 80be
00000230: bcf5 313c 7019 3c3d eff8 44be d64d 1ebe
00000240: e97a ce3d 1b62 5a3e c6d4 a63d 40a5 e3bc
00000250: 2c9b 81bd bd38 a93e be4a 72bd 314f ee3e
00000260: 03c1 b23e 2209 f03d 705b 8b3d 2ec0 41be
00000270: 0444 733e 7497 31be cad2 1c3e adf9 ad3e
00000280: 03a4 703e 10c5 ea3c 2ecb 32bd 8025 ff3b
00000290: 3cb3 9f3d 935b 3b3e d0cf cebd e0a3 7cbd
000002a0: 42b1 243e c4aa ad3d 9ad2 e33e 4d38 923e
000002b0: 2d96 283d fe0b b0be 0e0f ca3d c0fb 37bd
000002c0: 110b 723e ce6e 7f3d 09ee 28bc ffde 99be
000002d0: 0a70 a5be 71bf b4be 970f 903e 348d b23c
000002e0: afad b53e ad23 4b3e 0cad de3d bcf1 a5bd
000002f0: 4e1a b93e 80c6 3c3d c018 cebc b6fc 373e
00000300: 616e 91be 9737 4bbe 4b21 5abe acd8 af3d
00000310: 52eb 59be 7066 efbd de42 03be 663a 583e
00000320: 807e 373b e675 4cbe c5c0 a1be faed 6dbe
00000330: e81f 91bd 8c54 73be 99c0 963e 30e8 49bd
00000340: 8a62 833d 465e 1fbd a09d cf3c a8bf 61bd
00000350: b673 ffbd 9c05 9ebe 324c fdbd 3ce1 383e
00000360: 297c cfbd 946f 1ebe 1ef1 3f3e dc51 82be
00000370: 2298 023e 7c44 c9bd 30a1 903c 719d 07be
00000380: 5111 553e 20c6 20bd d839 c73d d03b c73c
00000390: 07d5 803e cd49 5abd dfbc 9c3e 9444 80be
000003a0: 26a7 313e 3c7a 04be 03aa 9c3e 9027 893d
000003b0: be13 543e 30bb 2fbd 76cf 09be 82ca 2e3e
000003c0: 06a1 76be 4891 16bd 30e5 84be 74e7 99bd
000003d0: fca3 debd dbf5 52be 4093 e43b abe5 923e
000003e0: 42dd c23e 16c7 5f3e c076 be3c 1ca4 08be
000003f0: 01c1 66be 24d4 9ebd 4e99 5c3e 0063 5b3c
0.26987237 0.15663591 0.33588848 -0.32699886 -0.20862918 0.13038242 0.06444675 0.1138185
0.08483949 0.26235554 -0.25890225 0.04693556 0.045372076 -0.21230833 -0.07429266 -0.282972
0.22129753 -0.068190575 -0.0802768 0.23991147 -0.06810525 -0.118786424 -0.1076163 -0.25337148
0.023915391 -0.3575592 -0.16870439 -0.088403195 0.17044991 0.2551925 -0.058280736 0.14410883
0.08097237 0.17624423 -0.1911925 -0.31437773 -0.33365798 -0.31773326 -0.0025852644 -0.00085896254
-0.19384128 -0.2708918 0.034005225 -0.012378275 -0.37635744 0.16598341 -0.16600019 0.23677191
0.2731904 0.06512394 0.19427316 0.07275632 -0.24080095 -0.2004875 0.30035746 -0.19657308
0.023857549 0.050595284 -0.06355888 -0.33398023 -0.027139483 0.32687047 0.16760477 0.02910164
-0.27792755 -0.22329721 0.17744768 -0.018420458 0.32339367 0.052747913 -0.0565442 0.24162802
-0.3323794 0.15082762 0.010293563 -0.07077095 0.02796767 -0.3060405 0.30891272 -0.115572646
-0.35175547 0.27469733 -0.112312205 0.062284023 -0.35178557 -0.30479705 -0.06522087 -0.15349644
0.062037915 0.1770233 -0.23227447 0.22965989 0.02526484 0.039879262 0.029574186 -0.28305504
0.38452163 0.19307438 -0.13318886 -0.13562636 0.1722615 0.38478214 0.047773078 0.15866795
-0.1915237 -0.13405143 0.20716956 -0.211964 0.28008714 0.26292798 -0.24949265 0.31191853
0.23718852 0.19078583 0.43541244 -0.045274973 -0.11237353 0.108015716 -0.25606516 0.3699086
0.13719514 -0.098747805 0.3272238 -0.057311863 0.2980676 -0.35304484 -0.18772063 -0.18091577
0.30290818 0.07266301 -0.007787927 -0.22864455 0.30669847 0.4397037 0.0010926414 0.07716128
0.25853798 0.18960407 -0.09578315 -0.2509211 0.01086181 0.045922697 -0.19235586 -0.1545938
0.10082037 0.21326487 0.08146052 -0.027788758 -0.06328425 0.330511 -0.05915331 0.46544793
0.3491288 0.11720492 0.0680455 -0.18920967 0.23756415 -0.17342931 0.15314785 0.3397955
0.23500066 0.02865842 -0.0436508 0.007786453 0.07797858 0.18296652 -0.10098231 -0.06167972
0.16083243 0.084798366 0.44496614 0.2855858 0.041158844 -0.3438415 0.09866153 -0.044917822
0.23637034 0.06236153 -0.010310658 -0.30052945 -0.32312042 -0.35302308 0.28136894 0.021795847
0.35484073 0.19837828 0.1087285 -0.08102748 0.3615288 0.04608774 -0.025158286 0.17967495
-0.28404525 -0.19845425 -0.21301763 0.08586249 -0.21281174 -0.1168946 -0.12818477 0.21116027
0.0027998984 -0.1996685 -0.31592384 -0.23235312 -0.07086164 -0.23762721 0.29443815 -0.049293697
0.06415279 -0.038908266 0.025343716 -0.05511442 -0.12473242 -0.30863655 -0.12368049 0.1805467
-0.101311035 -0.15472251 0.18744323 -0.2545308 0.12753347 -0.098275155 0.017654985 -0.13243653
0.20807387 -0.039251447 0.0972783 0.024320513 0.25162527 -0.05329304 0.30612847 -0.2505232
0.17348918 -0.12937254 0.3059846 0.06696999 0.20710656 -0.042903125 -0.13458046 0.17069438
-0.24084863 -0.036759645 -0.25956106 -0.07514849 -0.10871121 -0.20601599 0.0069755614 0.28690848
0.3805943 0.21853289 0.023249984 -0.13343853 -0.22534563 -0.07755306 0.21542856 0.013390303

sequential_1/dense_1/MatMul f4 [32, 16]
00000000: af37 06be 99ae a83d a0b0 833e fae5 1cbe
00000010: 66a7 93bd 26b9 3e3d bab8 be3e 23a9 0e3e
00000020: 9b09 183c 8b31 3a3e f583 893d 52ef aa3e
00000030: b5a2 323e d082 b33e b36d ac3e 4ef4 26be
00000040: e340 8bbe fed2 7a3e 5c5e 9e3d add1 ad3e
00000050: 1e1f 513e 30c4 7fbe 3623 adbe 4cea a43d
00000060: fc00 72be d328 26be 32e3 083e 0cc2 cf3d
00000070: e540 79be 2262 0fbe f584 0bbe f24f 653e
00000080: 5aaa 8f3e 08cf 9d3e e79d a1be 3ef2 ec3d
00000090: 6e10 b8be c6ae 233e 0c82 b8be 7f63 3c3d
000000a0: c281 7a3d 5ac2 63be b530 8d3e e4ca cdbc
000000b0: 0d95 1cbd 18ce 8e3e ab3f 2dbe e758 75bd
000000c0: 7419 85be 44c4 dfbd 94b5 a9be ccb6 c0bd
000000d0: 02d0 2e3e fd30 70be 883c b9bd b806 05bd
000000e0: 3656 763e 1e79 403e d859 57bd 304e 403d
000000f0: 0c06 af3d 6ce9 1ebe c448 a4bd b750 08be
00000100: 6f3b 843e 4815 ce3d 40aa 7b3d 275e adbe
00000110: 4cb4 abbe 4b92 6ebe 60c0 dbbc 5b0c 8d3e
00000120: 90c1 32be 03b1 903e f7af 90be b057 8abe
00000130: b0df 77bd 368c 573e 7222 703e 8468 c5bd
00000140: 7390 423e a55a 17be 2b83 343e 1a40 d83e
00000150: 2370 963e d05e 5b3e 8f6b d33e 8af2 b53e
00000160: e4b4 de3d edcc 7dbe 4e08 98bd d6df 883e
00000170: 761b 5d3d b7c4 533c 4426 b53d 5061 12be
00000180: 7557 75be 3c24 7d3e ea86 efbc 1894 f2bc
00000190: 2de0 29be c5e5 d73d 9129 623d 6d55 28bd
000001a0: d993 0fbe fac5 5a3e f702 9ebe 9809 823d
000001b0: 3bd8 9e3e 651e 293e daff acbe 7cdf 493c
000001c0: ff9a 01be 9859 acbe 9895 b2bd 2f76 33be
000001d0: 2442 56be 46b1 7e3e 7253 053e b994 87be
000001e0: 6a00 603e 86d2 0abe 8ea1 1a3e d0f4 c33d
000001f0: 0467 d2bd 78e7 cb3d 4dc3 01be ec8b 0abe
00000200: f057 b7bd 4ef1 4d3e e18c a43e 1a06 fcbd
00000210: b444 17be 3e90 84be 5ef7 4b3e 00b6 7bba
00000220: 2a9b 9ebe 7e81 673e 2e7a 763e 79a5 89be
00000230: 50a4 38bd 44ae 72be bf52 32be 34c7 943d
00000240: d2a6 3d3e 179b a63e 115d 9bbe 7834 89bd
00000250: 4aac adbe b124 26be f8fb 03be 4302 16be
00000260: 8c0c 98bd 4ad1 0a3e 6853 e83d 1d87 65be
00000270: d496 103e 5e6c 333e 3e23 213e c0d9 b3bd
00000280: 8cc0 183d 97f2 c73e 2380 ae3e 295c 6fbe
00000290: fecf 613e c427 df3e cb3e 953e 9499 2d3e
000002a0: 1155 c23d c2cb e8bc 7b8d c93d c06c d1bb
000002b0: f0e5 7bbe bfff 353c 9ef8 43be 0cb3 d83e
000002c0: a308 9e3e 40d1 ffbc cac6 223e 2c83 1fbe
000002d0: 98f8 f4bd 4086 1fbd 312e 1ebe d76c b3be
000002e0: acc0 9abe 4067 d8bd 90a3 80be 2240 553e
000002f0: 5a8c 313e 806e acbb a2b3 96be 18a5 94be
00000300: bbda d33e e652 9f3e da43 e43e e15e 9a3e
00000310: bb7b 49be b884 c13e 55f5 c23e a404 ec3c
00000320: 0423 673e 3566 2f3e 7c73 033e 2d0b 05be
00000330: b64b 0b3e 1327 233e c99a 15be 1a4f eb3d
00000340: 8991 0abe a670 783e ed55 a4be bbff 17be
00000350: 4e72 523e 00e2 8f3b bc8d a0bd f099 e33c
00000360: 3d7e 893e dd31 9b3e d7c9 0ebe 401e eb3b
00000370: 71e9 83be 80f2 a1bb b6b1 23be 0119 95be
00000380: dca8 953e a8c8 a9bd d605 35be f6f4 86bd
00000390: b409 07be d64a bf3d 744e 513e 1a11 10be
000003a0: 21ba 453e 25b5 3dbe 92de 05be 5a87 753e
000003b0: 9cb8 aa3d 1779 963c 2c0a d9b8 c010 8e3d
000003c0: a06e 913d 22dd 94be 4622 2d3e 0822 4c3d
000003d0: 1057 15bd 7242 293e e188 1abe d6cb 7b3e
000003e0: a0da adbe 2a50 9abe ce86 7f3e 9654 383e
000003f0: 780f 0bbd e05b be3c 76d1 74be 480b 0f3d
-0.13107179 0.08236427 0.25720692 -0.15322104 -0.07209663 0.04656329 0.3725031 0.13931708
0.009279634 0.18182962 0.06714622 0.33385712 0.1744488 0.3506074 0.33677444 -0.16304132
-0.27197942 0.2449455 0.07732841 0.33949032 0.20422027 -0.24977183 -0.33815926 0.08052501
-0.23633188 -0.1622651 0.13367918 0.101444334 -0.24341162 -0.14002278 -0.13624938 0.22393778
0.28059655 0.30822015 -0.31565782 0.115696415 -0.35950035 0.1598464 -0.36036718 0.045993324
0.061158903 -0.22242108 0.27576223 -0.02512116 -0.038228083 0.27891612 -0.16918819 -0.059899237
-0.25995982 -0.109261066 -0.33146346 -0.09409866 0.17071536 -0.23456188 -0.090447485 -0.03247711
0.24056324 0.18796203 -0.052575916 0.046949565 0.08546075 -0.15518731 -0.080216914 -0.1331204
0.25826594 0.10062653 0.06144166 -0.33860895 -0.33535993 -0.23297994 -0.02682513 0.2754849
-0.1745665 0.2826005 -0.2825925 -0.27020025 -0.06051606 0.2104958 0.2345064 -0.096390754
0.19000416 -0.14780672 0.17628162 0.42236406 0.2938243 0.21422887 0.41292998 0.35536605
0.10874346 -0.24785204 -0.07423459 0.26733273 0.053981267 0.012925318 0.08845189 -0.14294934
-0.23959143 0.24720854 -0.029239137 -0.029611632 -0.16589423 0.10541872 0.055215422 -0.041097093
-0.14021243 0.21364585 -0.30861637 0.06349486 0.31024346 0.16515501 -0.3378895 0.012321349
-0.12656783 -0.33662105 -0.08719939 -0.17525552 -0.20923668 0.24872312 0.13020113 -0.26480654
0.21875158 -0.13556871 0.1510069 0.09568179 -0.10273555 0.099562585 -0.12672158 -0.13529938
-0.089523196 0.20111582 0.32138732 -0.12305851 -0.14772302 -0.25891298 0.19918582 -0.000960201
-0.30977756 0.22607991 0.24070045 -0.26884058 -0.045078576 -0.2369929 -0.17414378 0.072645575
0.18520668 0.325402 -0.30344442 -0.06699461 -0.3392051 -0.16224934 -0.12889087 -0.146493
-0.07424268 0.135564 0.113440335 -0.22414823 0.14120036 0.17521808 0.157361 -0.08781767
0.037293002 0.3905227 0.34082136 -0.23375 0.22051999 0.43585026 0.2914947 0.16953117
0.094888814 -0.028417472 0.098414384 -0.006391138 -0.24599433 0.011108338 -0.19137809 0.42324102
0.30865964 -0.031227708 0.15896145 -0.15577382 -0.11961478 -0.03894639 -0.15447308 -0.35043976
-0.30225122 -0.105665684 -0.25124788 0.20825246 0.17338696 -0.005262196 -0.29433924 -0.29032207
0.41377816 0.31117934 0.44583017 0.30150512 -0.19676106 0.3779657 0.38077798 0.028810807
0.22571951 0.17128833 0.12837023 -0.12992544 0.136031 0.15932874 -0.14609827 0.11489697
-0.1353208 0.24261722 -0.32096806 -0.14843647 0.20551416 0.004390955 -0.07839534 0.027783364
0.26854125 0.3031148 -0.13944183 0.007175237 -0.2576404 -0.0049422383 -0.1598576 -0.2912064
0.29230392 -0.08290225 -0.17678007 -0.06589691 -0.13187295 0.09340446 0.20440084 -0.14069024
0.19309284 -0.18526132 -0.13073185 0.23977414 0.08335993 0.018368287 -0.00010349261 0.069367886
0.07101178 -0.2907496 0.16907606 0.049837142 -0.036459982 0.16529253 -0.15091278 0.24589476
-0.3395586 -0.30139285 0.24953768 0.18001017 -0.0339503 0.023237169 -0.23908028 0.034922868

sequential_1/dense_1/Relu;sequential_1/dense_1/BiasAdd f4 [32]
00000000: 1c98 ce3d 0000 0000 8eac ebbc 0000 0000
00000010: 0000 0000 8d7a c13d 6223 a6bc 0000 0000
00000020: 0000 0000 0000 0000 21f5 ca3d 0000 0000
00000030: e23e cb3d 0000 0000 45d5 6fbd 0000 0000
00000040: 399d c93d f7ee c63d ed7e ba3d 0000 0000
00000050: 0000 0000 0000 0000 22d1 78bd 46a6 d43d
00000060: bec7 c83d 21c2 ca3d 0000 0000 0000 0000
00000070: 6315 b33d 0000 0000 0000 0000 0000 0000
0.10087606 0.0 -0.028768804 0.0 0.0 0.09447203 -0.020280544 0.0
0.0 0.0 0.09910036 0.0 0.09924103 0.0 -0.058553 0.0
0.09844441 0.09713548 0.091062404 0.0 0.0 0.0 -0.06074632 0.10383277
0.09803723 0.099003084 0.0 0.0 0.087443136 0.0 0.0 0.0
